vae_model.pt (torch, 31381 bytes, 19 tensors)

encoder.linear1.weight f4 [32, 64]
000000 94 ba 9d be e5 d7 ad 3d 6c 24 aa 3d 5b 47 c5 3e
       -0.3080641 0.08488444 0.08307728 0.38531002
000010 01 6e ac 3d b1 2d 31 bf 09 c6 3b 3f 6a 53 da be
       0.08419419 -0.69210345 0.7334905 -0.42641765
000020 ce aa b2 be e1 78 03 bf f9 f2 ec bd 2e 03 bb 3e
       -0.3489594 -0.5135632 -0.11569781 0.36525863
000030 0a 7c 83 be 68 c1 91 3e 31 7a a6 3d ef 5e cb 3d
       -0.25680572 0.2846787 0.08128775 0.099302165
000040 99 92 f5 3e 6d 2d 49 bf 5a f1 a2 3e dd ac 03 3f
       0.47963408 -0.7858494 0.31824762 0.51435643
000050 97 45 50 3e e2 48 31 3e 55 09 27 be 1f 9f 11 be
       0.20339046 0.17312959 -0.16312154 -0.14220856
000060 99 11 79 be 59 e0 09 be 3e 11 c0 bc 90 29 ac 3c
       -0.24323119 -0.13464488 -0.023445722 0.021015912
000070 33 2b ff 3e 8e 89 05 3e c1 5f 9e 3e 81 cc b1 3e
       0.49837646 0.13040754 0.3093243 0.34726337
000080 10 db 21 be c6 bc 04 be 11 91 41 3e d8 c6 ee be
       -0.15806222 -0.12962636 0.18902995 -0.4663608
000090 a0 ad ab 3e ad 60 8b 3e 9f 00 d0 3e 59 02 1c 3e
       0.33530903 0.27222195 0.40625474 0.1523527
0000a0 7d 99 d7 be 83 a2 f7 3e 4e 75 1c 3d a7 3b 31 3e
       -0.4210929 0.48366174 0.038197808 0.17307912
0000b0 12 19 6e 3f d0 0c 95 3d 8c 9c bf 3e e1 2e 34 bd
       0.93007004 0.072778344 0.37424123 -0.04399002
0000c0 6f 67 ce 3c 35 63 84 be 70 4a 67 bc 4d 32 52 3d
       0.025195805 -0.2585694 -0.014116868 0.0513175
0000d0 eb 5d db be 35 08 ad 3d 4d ac 9f bf 64 ab 31 be
       -0.4284509 0.08448831 -1.2474457 -0.17350537
0000e0 8c c1 da 3d bb 57 1c c0 85 bc 26 3f 0a 72 84 3e
       0.106814474 -2.4428546 0.6513141 0.25868255
0000f0 43 ab dc bd 4f 96 c0 bd f0 aa 18 c0 b7 0e 76 bd
       -0.10774853 -0.09403669 -2.3854332 -0.060072627
000100 c6 a3 a9 3d 0f f1 b6 3d 26 b2 31 be ee d6 85 be
       0.082831904 0.08932697 -0.17353114 -0.2614054
000110 13 42 14 be 54 a2 88 3e 22 52 ad bd bf b9 8a bd
       -0.1447833 0.26686347 -0.08462931 -0.067737095
000120 90 7c a0 bd 91 d6 87 be 1f 09 7f be ac 4e 23 bd
       -0.078362584 -0.2653089 -0.24905823 -0.03986995
000130 f4 e3 7a 3b 86 27 f1 bd db d0 cb bd 2d a0 91 3c
       0.0038282843 -0.117751166 -0.099519454 0.017776573
000140 9c cd b1 ba 3e 2d af bf 5f f3 1e be 0e f8 f9 bd
       -0.0013565305 -1.3685682 -0.15522526 -0.12205516
000150 03 f8 d6 3c 22 62 4c be a0 68 b0 3d 73 bd 88 bd
       0.026241308 -0.1995931 0.08613706 -0.066767596
000160 dd 3d 06 be a8 6f 9b 3d ad a5 2e be 7c b8 d2 bd
       -0.13109536 0.07589656 -0.17055388 -0.10289094
000170 f6 bd 41 bd d6 83 62 3e 52 7f 96 bc 6c c8 d8 3a
       -0.0473003 0.22120604 -0.018371258 0.0016539223
000180 85 10 f0 3d a0 5f 88 be f7 aa d2 bd 23 23 a1 3c
       0.11721901 -0.26635456 -0.10286515 0.019670075
000190 3d 21 a0 3d 80 e0 56 be 2d 09 19 be c7 88 cd bd
       0.0781884 -0.20984077 -0.14944907 -0.10035854
0001a0 ef 83 84 3d 5a 70 2c 3e d3 46 ec 3c 5d c6 03 3d
       0.06470477 0.16839734 0.028842365 0.032171596
0001b0 96 df 1b 3d d5 6c c7 bd 99 c5 e1 bd 28 36 8a bd
       0.038055025 -0.09737555 -0.11024017 -0.06748611
0001c0 ff 03 25 3e b2 85 47 3d a3 97 93 3e 3c 58 96 be
       0.16114806 0.048711486 0.28826627 -0.29364192
0001d0 26 66 18 3d f0 36 86 bd fb 1b d9 3d 0a cc 69 be
       0.03720679 -0.06553447 0.1060104 -0.22831741
0001e0 04 35 91 bc 86 b3 82 3e f1 da 34 3e 77 2f 92 be
       -0.017725475 0.2552759 0.17661645 -0.28551838
0001f0 08 e1 32 bc 98 69 4f 3c 5d f8 b3 bf 29 a5 26 be
       -0.010917909 0.012659453 -1.406017 -0.16273941
000200 0e 53 74 be 1e ee a8 bd 4c fa bf be 41 4d 83 bd
       -0.23859808 -0.08248542 -0.3749565 -0.064112194
000210 b7 59 50 3d fc 6c 1c 3e d8 63 8d 3e d2 8a c8 3e
       0.05086681 0.15275949 0.27615237 0.39168411
000220 c6 bf a0 bd 17 d0 be be cd 39 42 3d 0e 4a 98 3e
       -0.07849078 -0.37268135 0.047418404 0.29744
000230 6f 1d b7 be 3d ff 85 3e 6e 1e 4a be 94 04 06 3f
       -0.35764644 0.26171294 -0.1973817 0.52350736
000240 3b 2c d7 be c4 39 4c bf e3 da ba bd 1d ad 54 3e
       -0.42025933 -0.79775643 -0.091237806 0.20769162
000250 78 9c 73 3d 16 d5 aa 3e 0a 3f 01 3e 3a 41 f4 bc
       0.059475392 0.33365697 0.12621704 -0.029816259
000260 91 79 87 be f8 02 6d 3e b4 03 e1 3d 0e 82 5f 3b
       -0.26459935 0.23145664 0.109870344 0.0034104618
000270 6c 95 18 be 88 14 2a 3d 0f d7 6b be e2 a0 5e 3e
       -0.1490075 0.041523486 -0.23031257 0.2174106
000280 98 8d c5 bd 52 73 f3 be 0d 71 e8 bd 9e 6c 18 be
       -0.096461475 -0.4754892 -0.11349688 -0.14885184
000290 f3 1c 33 bd aa 7a e1 3d 9c 96 39 3e 17 33 f1 3c
       -0.04372878 0.110097244 0.18123859 0.029443307
0002a0 fb 1b 47 3e a5 06 b7 3d 8b a4 f3 bd 01 cc 70 3e
       0.19444267 0.08936814 -0.118966185 0.23515321
0002b0 eb 1b 97 be 3a 56 0b be 08 26 28 3e 12 93 53 be
       -0.29513487 -0.13607112 0.16420758 -0.20661572
0002c0 dc c9 ea 3d 2d fe b5 3c 32 4e 99 3e 53 03 6a be
       0.11464283 0.022215927 0.2994247 -0.2285283
0002d0 a4 93 c3 3d dc 96 80 bd 3b 6c 7d be ea 83 05 be
       0.095496446 -0.06278774 -0.24748318 -0.13038602
0002e0 05 a1 c5 be cf 69 b6 be 5d bd 0f be f7 1f e4 be
       -0.3859941 -0.356276 -0.1403708 -0.44555637
0002f0 c4 f5 d3 3c 98 36 32 3d 09 79 a8 be ed 92 99 be
       0.025874026 0.043509096 -0.32904842 -0.29994908
000300 3c 64 7d 3d 99 53 cb bd 7f e4 57 3e 44 3f 37 3e
       0.06186317 -0.09928054 0.21083258 0.17895228
000310 06 99 ab be 94 f4 28 3d a2 33 78 be 42 97 39 3f
       -0.33515185 0.041248873 -0.24238446 0.72496426
000320 c3 57 fa be 81 e6 04 3d fc 0f b4 bd 53 25 9c be
       -0.48895082 0.03244639 -0.08792111 -0.30497226
000330 66 20 e8 be 62 13 c7 3d 98 45 36 3e 6d 7a c2 3e
       -0.45337218 0.09720494 0.17799985 0.37984028
000340 66 4c d0 bd d9 f2 ea bf be ff 7e 3e 4d 44 e4 3c
       -0.10170822 -1.8355361 0.24902245 0.0278646
000350 38 e4 d4 3d e4 48 e3 3c 36 1e ff 3e b3 1b 5d 3e
       0.10395092 0.027744718 0.49827737 0.21592598
000360 84 14 b5 3d 29 be 6a 3e 58 7d a4 be ee 7d 06 3e
       0.08841804 0.22924103 -0.3212688 0.13133976
000370 0a 03 11 bd 08 0a 12 3f 03 97 80 bb cd f4 01 be
       -0.03540329 0.57046556 -0.003924252 -0.1269104
000380 41 26 eb 3d 0c b6 95 be 4e b4 9d be 35 50 d6 3e
       0.11481906 -0.29240453 -0.30801624 0.41858068
000390 9a 66 10 3f ab fd f9 bc a0 f8 97 3d 1c e8 a7 be
       0.5640656 -0.030516466 0.07420468 -0.32794273
0003a0 20 b5 e7 3d 3b 47 be 3d d1 32 39 bf 66 11 08 bf
       0.11313844 0.0929093 -0.72343165 -0.5315155
0003b0 41 a5 82 bf 3b c9 e3 3d db e4 88 3e 47 ad fa be
       -1.0206681 0.11122366 0.26737103 -0.48960325
0003c0 4a 7b 72 3e 33 d4 19 bf 73 4c a7 3e 63 68 dd be
       0.23679844 -0.60089415 0.32675514 -0.43243703
0003d0 67 28 0b be 21 d8 cc 3e 0f 52 07 3e e4 b1 36 bf
       -0.13589631 0.40008643 0.13214897 -0.7136519
0003e0 a5 1f e2 be 7e 18 78 c0 75 d0 15 be af 6c 40 3e
       -0.44164768 -3.876495 -0.14630301 0.1879146
0003f0 74 6d 88 3e a8 a1 d2 3c 6b e3 04 c0 5f 0d a8 bd
       0.26646006 0.02571185 -2.0763805 -0.08205675

encoder.linear1.bias f4 [32]
000000 82 b4 17 bf 1f c7 55 3d 1a d1 96 3d 00 e0 67 bf
       -0.5925981 0.05219185 0.07364102 -0.9057617
000010 78 39 0f 3f ed 22 03 bf 18 eb 51 bf cb 35 86 bf
       0.55947065 -0.5122517 -0.8199935 -1.0485166
000020 c0 a2 21 bf f0 ec 88 3e 6a 36 d9 be 14 52 9c bf
       -0.6313896 0.2674327 -0.42424327 -1.2212548
000030 3d 53 74 bf 4b b1 0d 3f bd 1a 05 bf 0e 5a 1e bf
       -0.9543951 0.5534865 -0.51993924 -0.6185616
000040 31 6e ce 3e b9 91 02 bc 67 3b 02 bf c8 7b dc be
       0.40318444 -0.007969313 -0.5087189 -0.43063188
000050 51 75 92 3d b6 b9 23 bf f9 1e 86 bf 06 52 94 3f
       0.071512826 -0.6395525 -1.0478202 1.1587532
000060 7b cc c5 be 30 32 7b bf e4 b9 9f 3e 7b 4b fc be
       -0.3863257 -0.98123455 0.3119651 -0.49276337
000070 dd c3 99 bf 60 b3 92 3f df 1c 94 bf b0 9b f2 be
       -1.2012898 1.1460991 -1.1571311 -0.47384405

encoder.linear2.weight f4 [16, 32]
000000 71 21 38 3e 8b 91 e4 be 01 75 9a be 63 82 5c bd
       0.17981507 -0.4464229 -0.30167392 -0.053835284
000010 42 c6 27 be ca 55 68 be c4 dc d1 be 08 e0 9b bd
       -0.16384223 -0.22688976 -0.40988743 -0.0761109
000020 2d b6 26 be bc 54 ec bd 5c 6f ca be 7a e5 8c 3d
       -0.16280432 -0.11539599 -0.39538085 0.06879707
000030 a8 26 03 be a6 d0 18 3e 3f c2 26 3e 1c 39 ce bd
       -0.12807715 0.14923343 0.16285037 -0.100694865
000040 09 37 8b be a8 27 9a be dd 20 cd bd 5e 5f ed bd
       -0.27190426 -0.3010838 -0.10016034 -0.115904555
000050 df 7c 28 be 8e 59 f6 bd 21 ee 81 bd 32 20 27 bd
       -0.16453885 -0.120288 -0.063442476 -0.04080219
000060 a0 c1 1f bc 0e 9a 0c bd 15 a0 45 be 00 0f 10 3e
       -0.009750754 -0.034326605 -0.19299348 0.14068222
000070 7f 04 68 bd 0c 7a 96 be 96 94 66 be ab fa 50 3e
       -0.056644913 -0.2938999 -0.22517619 0.20408122
000080 8f e2 16 3e 78 12 85 3d d2 7c 1d 3d 85 87 4a 3e
       0.14734863 0.06497663 0.038449116 0.19778259
000090 38 f3 c3 3e 71 43 9c 3e 89 78 f7 bd 61 e7 60 3e
       0.382715 0.30520204 -0.12083537 0.21963264
0000a0 f7 b6 6d 3d b2 6f 71 bc 4c 0f 0d 3f fa 5c e5 bd
       0.058035817 -0.014736103 0.55101466 -0.111993745
0000b0 e4 a4 2f bf 4d ca a5 3c 00 b3 90 be 9d 1c a7 3c
       -0.6861098 0.020238066 -0.28261566 0.020399386
0000c0 89 ae 27 be 50 59 30 3d a2 55 1b be f4 01 2a bf
       -0.16375174 0.043053925 -0.15169385 -0.6640923
0000d0 90 6f dd be 4c 80 55 3e d1 79 82 3f 90 57 17 be
       -0.43249178 0.20849723 1.0193425 -0.14779496
0000e0 0c 58 ec 3a ec e7 19 3e f9 f0 38 3e 87 fb 6f bd
       0.0018031611 0.15029877 0.18060674 -0.058589485
0000f0 85 13 0b 3f 6b 47 d3 be e5 01 01 3d ad 32 60 3e
       0.5432666 -0.41265425 0.031495947 0.21894331
000100 7a 0d 0e 3f 12 69 46 3f 7f 8b 7b 3d 4f ac 05 3f
       0.55489314 0.77504075 0.06141233 0.5221605
000110 68 97 b9 be bf 7a 5a 3e 92 cf 85 bf eb 6b 50 bf
       -0.36248326 0.21335886 -1.045397 -0.8141467
000120 39 43 e4 3e 8c 95 f3 bd ab 78 1c be ae 0d 4a 3e
       0.44582537 -0.11893758 -0.15280406 0.19731781
000130 ff d9 94 be 07 3b 73 3e fa 2a cf 3e 3d 68 8f 3e
       -0.29072568 0.23752986 0.40462476 0.28009215
000140 cf 49 aa be 44 59 50 bc 46 31 70 be 87 d8 55 be
       -0.33259436 -0.012716595 -0.23456296 -0.2088338
000150 3a de 6b bf 4b c1 8d be c4 8f c2 3e 2c 5a c1 be
       -0.92135966 -0.27686533 0.3800031 -0.37764108
000160 e1 25 1d be 8f 45 62 3e da df 4a be 4a b8 12 3f
       -0.15346481 0.22096847 -0.19811955 0.5731245
000170 8b 66 07 be 12 f7 8a be 25 4f 85 3e 92 a8 17 3f
       -0.13222711 -0.27141625 0.26036945 0.5924159
000180 d2 2c 3c be 2a 7a 1c 3d 22 ae b2 bd 59 80 c6 bd
       -0.18376473 0.038202442 -0.087246194 -0.09692449
000190 12 88 44 be 36 2b 02 be aa 0e 38 be 4d 09 a5 3d
       -0.19192532 -0.12711796 -0.17974344 0.080584146
0001a0 5e 3b e7 bc a3 9c 8d bd 34 6e 35 be 16 87 ae bd
       -0.02822655 -0.06914642 -0.1771782 -0.08521859
0001b0 99 60 9e 3d 6a 1d 90 bd 81 22 d8 3d 60 9e 31 3d
       0.07733268 -0.0703686 0.10553456 0.04336393
0001c0 1b cc 41 bd 4c 53 07 bd 66 50 b0 bc 0a 5b df 3d
       -0.04731379 -0.033038422 -0.021522712 0.10906036
0001d0 24 d1 0d be 01 d5 b5 bd c1 55 23 bd d9 cf 40 be
       -0.13849312 -0.08878518 -0.039876703 -0.18829288
0001e0 06 e9 77 bb 73 a3 19 3d f4 b4 ea 3d 56 c7 d7 bb
       -0.0037828102 0.037509393 0.11460295 -0.006585042
0001f0 53 39 38 be 95 c3 82 bc 54 c3 12 be 01 45 2a 3d
       -0.17990617 -0.015962401 -0.14332324 0.041569714
000200 01 43 a5 3e 54 e9 72 3e 73 da 13 3e 65 8a da 3d
       0.32277682 0.2372182 0.144388 0.10670928
000210 ea 27 e4 3d 43 67 14 3f c5 66 b5 be 0c de db be
       0.111404255 0.57970065 -0.3542997 -0.42942846
000220 8d 53 84 3e 62 75 7c 3e ac 56 ad 3e 2d 60 52 bf
       0.25844994 0.24654153 0.33855188 -0.82178
000230 29 06 bf bf a3 d9 67 3e 73 9f 0d 3e 8f 80 fa 3e
       -1.4923755 0.22641616 0.13830356 0.48926207
000240 8a 45 4b 3e e6 10 4b 3d 54 9d d2 3d 9f 4a b6 be
       0.19850746 0.049576662 0.10283914 -0.35603806
000250 22 ed a4 bf 99 3f f1 be f8 92 37 3f 7d 8b 82 3e
       -1.2884867 -0.47118834 0.7170863 0.25497046
000260 34 bb 1d 3e 80 ea 7b 3d df 1e 4b 3e 74 be be 3e
       0.15403444 0.061502934 0.19835995 0.3725468
000270 9f 68 e7 3f e3 e3 ea 3e 54 9c d7 be b5 48 7d 3e
       1.8078803 0.4587699 -0.42111456 0.24734767
000280 e4 75 95 ba f3 e8 96 be 73 6f c0 bd 77 ec 03 bd
       -0.0011402932 -0.294746 -0.09396257 -0.032207932
000290 24 eb 70 3b 6e ab 8e 3d fa 42 91 bd 7b 92 4e bd
       0.0036761248 0.06966291 -0.07092853 -0.050432663
0002a0 ca 69 2a bd 3b 61 95 be aa 3e 52 3d 0b 31 e1 bd
       -0.041604795 -0.29175743 0.051329292 -0.10995682
0002b0 f7 ef 62 bd 09 a5 38 be 57 4f 73 bb 21 85 53 be
       -0.05540463 -0.18031706 -0.0037126148 -0.20656253
0002c0 76 75 16 3d 8f 67 06 be e4 17 69 bc 5d f1 ba bd
       0.036733113 -0.13125442 -0.014226887 -0.09128068
0002d0 d9 86 61 be d1 86 2e be 00 10 c5 bd a9 27 17 3d
       -0.22024097 -0.17043616 -0.096221924 0.036903057
0002e0 5f f8 98 3c 17 78 4b be 9e 9d 40 3d b7 19 38 3d
       0.01867312 -0.1987003 0.047025315 0.0449464
0002f0 68 96 35 be a0 41 1b be 90 5a 8c bd f2 51 a4 3b
       -0.17733157 -0.15161753 -0.06853211 0.0050146515
000300 36 34 d5 3d ef e3 32 3e 8d 04 1a 3e 57 85 8f bd
       0.10410349 0.17469762 0.15040798 -0.070078544
000310 85 60 93 3e b4 36 6d 3e cd c5 73 bf 5e 7d 96 be
       0.28784576 0.23165399 -0.95223695 -0.29392523
000320 e1 09 80 3e e8 70 41 3e 0c 5f 30 3f 83 bc 42 bf
       0.25007537 0.18890727 0.6889503 -0.76068896
000330 c9 33 b1 bf c2 c5 81 3e 91 b1 6c be 4c a3 36 3d
       -1.3843929 0.2534619 -0.23114611 0.044589326
000340 f6 23 98 3e bc a7 2b 3e 83 07 f7 3c c0 79 c0 bd
       0.29714936 0.16763204 0.030154949 -0.09398222
000350 b8 bf 26 bf 3b 6c 9c bf 29 f1 a4 3e 33 fe da 3e
       -0.6513629 -1.2220529 0.3221524 0.42772064
000360 a1 7a 5f 3d df 24 77 bf 4f f0 e4 3d fb d0 8c 3e
       0.054560307 -0.96540636 0.11178648 0.2750319
000370 5b 78 a6 bd 06 51 c2 3e e7 21 54 be 98 55 dd 3c
       -0.08128425 0.3795244 -0.20716058 0.027018353
000380 68 cc 52 3d 7b 4d 8d 3d 85 da bf bd 8d 2c 3a be
       0.05146447 0.06899544 -0.09367851 -0.18181057
000390 84 e9 fe 3c 59 21 01 3e c4 94 57 be 69 43 da bd
       0.031117208 0.12610377 -0.21052843 -0.10657389
0003a0 17 23 25 bd 34 1b 23 bd 03 c3 0b 3e 5c 0f 4c be
       -0.040316667 -0.039820865 0.1364861 -0.19927734
0003b0 92 7f 26 be e1 fd 46 be f2 cf d9 3d 56 5e 3d be
       -0.16259602 -0.19432785 0.106353655 -0.18493018
0003c0 a7 f3 29 be 14 67 0f 3d 76 d7 dd bc b3 a9 b6 bd
       -0.16596852 0.035010412 -0.027080279 -0.08919086
0003d0 f2 63 21 3d 97 70 2e be f9 3a 38 be d5 43 a0 bd
       0.039401956 -0.17035137 -0.17991246 -0.07825438
0003e0 c7 b9 17 be fb cf 9d bd 72 c5 34 bd 6d 2d 46 bd
       -0.14816962 -0.07705685 -0.04413361 -0.048383165
0003f0 e7 ab 3e 3d b3 b2 f8 bd 89 ae f2 bd 1d fe 92 bd
       0.046550658 -0.12143459 -0.11849696 -0.071773745

encoder.linear2.bias f4 [16]
000000 93 78 de bd 6c b4 89 be 77 8a 0d be f4 b3 08 be
       -0.108628415 -0.26895463 -0.13822351 -0.13349897
000010 8a 91 06 3f fd 9c 68 bc 59 44 b9 be 51 65 66 be
       0.52565825 -0.014197585 -0.36184958 -0.22499587
000020 50 7c 4d be ef ea 0f bf 66 ff ba bd ff dd 7a 3f
       -0.20066953 -0.56217855 -0.09130745 0.9799499
000030 3a 73 7c 3f 64 eb 9f 3e b2 cd c9 3f 5c cb 70 3f
       0.9861332 0.31234276 1.5765898 0.940603

encoder.linear3.weight f4 [16, 16]
000000 d6 b6 81 be dc 07 d2 3e d7 96 51 bd a0 0c 97 3d
       -0.25334805 0.4102162 -0.051169243 0.07375455
000010 70 47 32 3e e5 4b 48 3c 10 37 d7 be fd 33 51 3e
       0.17410064 0.012225126 -0.42034197 0.20429988
000020 bf 21 f0 bd b0 f9 8f be 9c 1d 87 be 64 b1 d1 be
       -0.117251866 -0.28120184 -0.26389778 -0.4095565
000030 6a fc 68 3f 09 83 65 3f cd cf 30 3e 32 25 ed 3d
       0.91010153 0.8965307 0.1726677 0.1157936
000040 53 04 1b be 29 ff b8 3e 0d ee 64 bc 83 c9 08 bd
       -0.15138368 0.36132172 -0.013972771 -0.0333953
000050 ea 59 99 3e 3a a4 0b 3e 0c a2 17 3f ee 69 15 3e
       0.2995141 0.13636866 0.5923164 0.1459119
000060 4a 26 ff bd 1f ff 7c 3d d7 75 3c be e6 b7 49 bd
       -0.12458475 0.06176674 -0.18404327 -0.049247645
000070 03 4f e2 be 91 df fe 3e 5f 1f 71 bd 31 9b ee 3d
       -0.44200906 0.49779943 -0.05886781 0.11650694
000080 eb 54 20 be 17 63 f6 bc ff 28 85 3e 82 c7 f6 bc
       -0.15657394 -0.030076547 0.2600784 -0.03012443
000090 19 b5 9d 3e 76 0c 44 be 7c 58 9a 3e 91 7b 5a 3e
       0.3080223 -0.19145378 0.30145633 0.213362
0000a0 ed 54 fe bc 0c c0 5a bf 48 f9 cf bd 04 69 29 bd
       -0.031046355 -0.8544929 -0.101549685 -0.041359916
0000b0 62 80 ef be 89 fc ca 3e 14 d4 7a ba 49 a5 1e 3e
       -0.46777636 0.39645794 -0.0009568345 0.15492739
0000c0 7a a2 f1 3d 73 14 0b 3e 35 f9 4b c0 b0 41 8a be
       0.11798568 0.1358202 -3.1870854 -0.2700324
0000d0 6e 53 dd c0 ff 4f 71 be 2a b1 c4 3e 68 ed 54 3e
       -6.9164343 -0.23565672 0.38416415 0.20793688
0000e0 32 36 6b be e9 7c 8c 3e cf 7d 48 3e bf 71 d5 bd
       -0.22969893 0.2743905 0.19579242 -0.10422086
0000f0 8c 02 27 bf db 58 46 bf c1 b5 90 3d bb fe 1b 3e
       -0.6523826 -0.7747933 0.07065917 0.1523389
000100 c5 86 1b 3e 36 7e 9c be e4 50 6d bd 9a 35 a2 bd
       0.15188129 -0.3056504 -0.05793847 -0.0792038
000110 f8 8e 12 c0 a5 5a c8 3d e1 3f 53 3e 55 dd a7 3b
       -2.2899761 0.09782914 0.20629837 0.0051228204
000120 a0 9d f9 3c 13 f3 9a 3e c2 cc aa bd 67 65 ac be
       0.03047067 0.30263576 -0.08339836 -0.33671114
000130 54 e7 52 be 0e 9f 4a 3f c8 64 18 3e 0e 6b 02 3e
       -0.20596057 0.7914895 0.14882195 0.1273615
000140 0b d9 81 3e b8 6e a9 bd e1 fa 81 be f9 45 f8 bd
       0.25360903 -0.08273071 -0.25386718 -0.12122721
000150 51 5d 16 3e bb 9b d8 3c 6e 50 27 3d ef d9 6f be
       0.14684035 0.026441446 0.040848188 -0.23422979
000160 5f 7d 04 bc 6d a5 a5 be fc b2 39 be be db db be
       -0.008086531 -0.32352772 -0.18134683 -0.42941087
000170 e7 03 0f 3e f3 87 a1 be b1 b0 be be d6 4d 0e be
       0.13966332 -0.31549034 -0.3724418 -0.1389688
000180 b3 b8 67 bd ee 39 0b 3f d0 5d 95 bd 95 f4 c3 3c
       -0.056572627 0.5438527 -0.07293284 0.023920337
000190 31 25 31 bf 1e a2 3e bc e9 bd a4 be a7 b3 52 3e
       -0.69197375 -0.011635331 -0.3217614 0.20576344
0001a0 b1 79 66 3e bc 90 8d bc 2b aa 4c be 80 1f 0e bf
       0.22507359 -0.017280929 -0.19986789 -0.55516815
0001b0 e4 4f ec 3e be 05 b5 3f c8 a2 c1 3e 8c 77 1a 3e
       0.46154702 1.4142377 0.37819505 0.15084666
0001c0 bb 85 a2 bd 29 7b aa 3e 5d d0 04 be 7c c1 31 be
       -0.07935663 0.3329709 -0.1297011 -0.17358965
0001d0 a2 d9 23 3f 6e db 21 3d b3 78 fe be d0 49 4d be
       0.64003956 0.039515905 -0.4970146 -0.20047688
0001e0 48 38 dd 3c 9f 8a 7d bf fe 3e 82 bd 27 05 ac 3d
       0.027004376 -0.99039644 -0.06359671 0.0839942
0001f0 5c cc 3c 3e 7d 21 3c 3f ff e8 f7 bc 4a 22 56 bd
       0.18437332 0.734886 -0.030262468 -0.052278794
000200 d8 73 5d be cb 94 a7 3e 2f 4b 20 bc dc 82 99 3d
       -0.21626222 0.32730708 -0.00978355 0.074956626
000210 73 c7 ee 3d 8a 2d 5b be 20 81 a9 3d a6 f5 6c 3e
       0.11659136 -0.2140409 0.08276582 0.23140582
000220 1e 1e 75 3e 24 03 07 3f 23 af d3 3e 84 56 87 be
       0.2393727 0.5273917 0.41344556 -0.26433194
000230 1e 9d 27 3e 91 47 2f 3e 42 f5 09 be c9 6d 6a 3c
       0.16368529 0.17117144 -0.13472465 0.014308401
000240 39 10 3c 3e c2 bc e3 3e 61 07 4d 3f fa 24 92 bd
       0.18365563 0.44479948 0.80089384 -0.07135959
000250 66 2b ed 3e 41 98 38 3e d3 ca 8c bd 4c 2f e8 3d
       0.46322173 0.1802683 -0.06874623 0.11337146
000260 bb 02 d0 bd ba ff bf 3e f2 df 01 3e 0c fd 06 bd
       -0.10156771 0.3749979 0.12683085 -0.032956168
000270 d0 f1 f8 3e fe 91 03 3f 4e ed f0 bc 36 67 0c be
       0.48621988 0.5139464 -0.02941003 -0.13711247
000280 78 93 05 3e 92 d9 17 3e 13 c7 2f be db 63 28 be
       0.13044536 0.1482909 -0.17165785 -0.16444342
000290 ce 9c 3c c0 fa 9c d4 3d 75 10 69 3e 98 b8 96 bd
       -2.9470706 0.103815034 0.22760184 -0.07359427
0002a0 00 36 3b 3e c5 e7 35 3b 2f df e3 bd 60 b2 32 3f
       0.18282318 0.0027756554 -0.11126553 0.6980343
0002b0 1d 2b 0b 3e bd f8 1d bf 2c b4 9a c0 f4 0b 4a bf
       0.13590665 -0.6170767 -4.8344936 -0.7892449
0002c0 67 2b b8 bd ca 08 51 3f b7 7d 0a be f7 3e 46 3e
       -0.08992653 0.81654036 -0.13524519 0.19359957
0002d0 15 7e a5 be 8f f0 00 be 78 ff 34 bf 9a d7 ac bd
       -0.32322755 -0.12591766 -0.70702314 -0.0843956
0002e0 b9 15 1b 3e fb d2 7f be 27 9c 09 bf c8 2a ed bd
       0.15145005 -0.24982826 -0.53753895 -0.115804255
0002f0 7d fd 51 3f 68 01 6b bf 16 7e 38 3e 6b 9a 93 bf
       0.8202742 -0.9179902 0.18016848 -1.15315
000300 ea 8e b3 bc 28 ee 49 bd e2 47 ca 3e 9d 96 ba 3c
       -0.021918733 -0.04929939 0.39507967 0.022776896
000310 87 0a 35 3e e3 01 7d 3e 3a cf 2f be ec 32 12 3d
       0.17679797 0.24707751 -0.17168894 0.035693094
000320 54 6b b9 3d 80 31 a8 be 5c 4e 46 be b3 6f 50 3e
       0.09053674 -0.32850266 -0.19365829 0.2035511
000330 7f 55 6d be e5 0f 0f 3d c9 d3 4e 3d 44 fb a8 be
       -0.23177145 0.034927268 0.050494943 -0.330042
000340 1a 63 b5 3c cc fe b4 be 7c af 1b be 88 21 43 3d
       0.022141982 -0.35350645 -0.1520366 0.0476394
000350 a3 75 ed 3e db 1d ad 3d 96 45 e3 3d 5e 10 11 3e
       0.46378812 0.0845296 0.11097257 0.141664
000360 0b ad c0 bd 66 f4 2f be ca e4 ae bd fb f2 ca 3e
       -0.09408005 -0.17183074 -0.08539732 0.39638504
000370 f3 76 03 bf 4a eb 31 bf 97 72 10 3e 94 86 b9 3c
       -0.5135338 -0.6949965 0.14106213 0.02264718
000380 6e 05 84 be e4 79 06 bd ae 7f e0 bf 6f 1f 7d 3d
       -0.25785393 -0.032831088 -1.7538965 0.061797556
000390 fb bf 49 c0 97 28 54 be bd 1f f7 be 33 33 bf bd
       -3.1523426 -0.20718609 -0.48266402 -0.09335937
0003a0 7a e4 1d 3e d4 c6 e4 3e df b3 25 be f3 bd f4 3d
       0.15419188 0.44682944 -0.16181897 0.119502924
0003b0 3a b0 c1 be 32 89 b1 bf ca 46 35 bd 85 78 9a bd
       -0.37829763 -1.3869994 -0.044256963 -0.075425185
0003c0 4d 48 aa 3d 86 41 86 be 62 82 38 c0 51 39 84 3d
       0.083145715 -0.26221865 -2.882958 0.06456245
0003d0 5e b5 1e c1 e2 96 a0 3c 15 91 82 3d fc c5 a5 bc
       -9.919279 0.019603197 0.063753285 -0.020236008
0003e0 9c 29 2b 3e 81 b1 3d be 34 6b fa 3d d7 f9 48 3e
       0.16715091 -0.18524744 0.122274786 0.19626556
0003f0 6c 92 b1 bf 10 b9 01 c0 3a 6f 6c 3d 6d bf 73 be
       -1.387281 -2.0269203 0.05772326 -0.23803492

encoder.linear3.bias f4 [16]
000000 30 29 4f 3e c1 ac 2c 3c d1 4d ce bc 9d 40 35 3f
       0.20230556 0.010539235 -0.02518359 0.7080172
000010 b5 5c d2 bd fd d7 c6 bd 7d 5b 39 3f 8b 20 32 be
       -0.10271589 -0.09709165 0.72405225 -0.17395227
000020 3b 1a c1 bf 16 a7 44 bf f5 23 1e 3f e5 1a 4a 3f
       -1.508613 -0.7681745 0.61773616 0.7894729
000030 fb 67 04 3f 70 58 27 3f 12 f2 0f 3f 09 28 79 3f
       0.5172116 0.6536932 0.56228745 0.97326714

encoder.linear4.weight f4 [8, 16]
000000 e5 f9 95 bd 98 5e 15 3f 85 0e da be 5b b5 85 be
       -0.07323054 0.58347464 -0.42589203 -0.26114926
000010 95 74 49 bd f8 0d 6c 3d d3 2d 07 3e be d3 d5 be
       -0.049183447 0.05763051 0.13201074 -0.4176311
000020 47 ae 23 3c 07 12 b3 3d 5d b9 e0 bc 05 8f 66 bd
       0.009990281 0.08743673 -0.027432138 -0.056288738
000030 39 65 09 be 87 33 c1 3c c8 e4 d0 3d 5e 78 0e 3e
       -0.1341752 0.02358414 0.101998866 0.13913104
000040 d2 00 38 bd 1e e3 e3 3e 39 55 ca be e6 36 74 be
       -0.044922657 0.44509214 -0.39518145 -0.23849067
000050 33 22 e8 bc 1a 18 5d bc 5a 23 ce 3d ae 53 94 be
       -0.02833662 -0.013494516 0.100653365 -0.28970093
000060 c2 e0 07 3d 5f 86 b1 3d 4f b6 d1 bc bd 93 0f bd
       0.03317333 0.086682074 -0.025599627 -0.035053004
000070 6f d5 11 be 20 ad 96 3c 6e dd af 3d 31 28 1d 3e
       -0.14241575 0.0183931 0.08587156 0.15347363
000080 fc 29 c7 ba 94 c9 e0 3d 48 fe 26 be 44 d9 d5 bd
       -0.0015195007 0.10975948 -0.16307938 -0.10441831
000090 0e 88 d5 bc 9b da 0c bc 5f 97 14 3d 83 8e 9d bd
       -0.026065852 -0.0085970415 0.03627717 -0.076931976
0000a0 08 03 72 3c d6 6f 89 3d 9f fd 52 bc 1b db 99 3b
       0.0147712305 0.06710784 -0.012877851 0.004695309
0000b0 d3 3f d5 bd 51 94 94 bb e4 e8 e6 3c 6a e1 b5 3d
       -0.10412564 -0.0045342823 0.028187223 0.08880885
0000c0 08 32 b5 bd 03 e4 df bc e6 37 98 3b 91 14 c2 3e
       -0.08847433 -0.027330404 0.0046453355 0.37906316
0000d0 51 48 91 3e e9 91 6c bc bf 46 f1 bd b6 52 9b bd
       0.28375486 -0.014439085 -0.11781072 -0.07584135
0000e0 44 2b 76 3f 34 f1 31 3e 5d b3 15 bd 4c 0a 95 3a
       0.9615977 0.17377168 -0.036548007 0.0011370867
0000f0 e4 63 0f 3e 5e a3 3f be 18 39 c2 3e 1a 82 56 3e
       0.14002949 -0.18714663 0.37934184 0.20948067
000100 68 04 a3 bd 32 7d 25 3f 83 54 01 bf b0 c2 92 be
       -0.07959825 0.6464416 -0.5051958 -0.2866416
000110 8b db 65 bd 6e bb b2 bd 79 36 10 3e b5 22 eb be
       -0.056117576 -0.087271556 0.1408328 -0.45924917
000120 5c fa 91 3c 63 86 e1 3d cd 37 ec bc c3 d0 53 bd
       0.017819576 0.1101196 -0.028835202 -0.051712763
000130 71 ac 1a be 36 08 1f 3d c4 55 ca 3d a3 67 24 3e
       -0.15104844 0.03882619 0.0987964 0.1605516
000140 a3 e3 8e bd 2e 53 26 3f 1b 10 13 bf c0 f5 89 be
       -0.06977012 0.6497067 -0.5744645 -0.26945305
000150 9a e8 20 bd 0f b9 d2 bb f9 8b e1 3d a4 ca d3 be
       -0.039284326 -0.006430752 0.11013026 -0.4136554
000160 79 b6 04 bc 46 22 dc 3d 80 99 0f bd ee 4b 8a bc
       -0.0081001455 0.10748725 -0.0350585 -0.01688191
000170 66 ca 22 be 9f 71 ba 3c 8c e6 b9 3d c9 b0 1e 3e
       -0.15897521 0.022759257 0.090771765 0.15497126
000180 fc 75 a7 bd b4 39 22 3f f0 f8 22 bf b0 c6 a8 be
       -0.081768006 0.633693 -0.636611 -0.32964087
000190 cc df 77 bd a3 11 c3 3d 85 da 0e 3e 9e 01 e6 be
       -0.060516164 0.09524848 0.13950546 -0.4492311
0001a0 18 bf 80 3c a5 ee 0d 3e 5a bd 09 bd c8 55 9b bc
       0.01571612 0.13860567 -0.033627845 -0.018961802
0001b0 fd c1 6a be 67 f0 d1 3c c6 d0 e0 3d 7e f3 64 3e
       -0.22925563 0.025627328 0.109773204 0.2235851
0001c0 d8 4f 0a 3e 0a 0f 6d 3b ee 1b 2c bb 49 c8 81 3e
       0.1350702 0.0036172294 -0.0026261765 0.25348118
0001d0 8d b8 24 3d a6 82 b2 bd dc 0c 05 3f c4 ff de 3c
       0.040215064 -0.087163255 0.51972747 0.027221568
0001e0 b6 cf 9d bc 1e 86 ee bc f6 9f fa be 59 bb 5f 3c
       -0.019264083 -0.029116686 -0.48950166 0.013655507
0001f0 08 c9 97 3c 07 c6 8e be 44 0f 49 bd 8a 0b 24 3f
       0.018528476 -0.27885458 -0.049086824 0.6408011

encoder.linear4.bias f4 [8]
000000 9f 3a 97 bc a7 1e 8e bc 43 f6 8a bc b9 57 03 bf
       -0.01846057 -0.0173486 -0.01696313 -0.5130573
000010 e2 5e 0f bd 92 f1 82 bc f2 95 c4 bc 32 91 83 be
       -0.035002597 -0.01598433 -0.02399728 -0.25696713

encoder.linear5.weight f4 [8, 16]
000000 a9 bd 4b bd 21 b9 e4 3e e5 63 ab be 27 0c 56 be
       -0.04974142 0.44672492 -0.3347465 -0.20903073
000010 bf 6a 2f bd a8 71 2a 3c fa ed dc 3d e4 11 c5 be
       -0.04282641 0.010403074 0.10787578 -0.38490212
000020 26 10 a7 3c 01 d9 b4 3d 26 f5 9f bc a8 7b 33 bd
       0.020393442 0.08830453 -0.019526076 -0.0438191
000030 37 f6 0a be 54 83 93 3c c8 9d 99 3d 72 c2 11 3e
       -0.13570486 0.018006958 0.075007975 0.14234331
000040 4e f2 e9 bc e9 c8 ae 3e 02 af 86 be 3d 4a 40 be
       -0.028557923 0.34137657 -0.26305395 -0.1877832
000050 03 b4 9b bc c2 19 1c 3d 32 ae 9c 3d 6c d3 95 be
       -0.019006735 0.038110502 0.076504126 -0.29262865
000060 4b a0 c8 3c 7c 4f b9 3d 83 2d a1 bc 58 3e f6 bc
       0.024490496 0.090483636 -0.019675022 -0.030059025
000070 c3 28 0f be 08 f8 55 3c 78 ec 5e 3d c9 e4 1b 3e
       -0.13980393 0.013059624 0.054424733 0.15223993
000080 93 c5 09 bc 3b 55 d1 3d df 7c 02 be 5d 1f c1 bd
       -0.008408922 0.102213345 -0.12742947 -0.0942981
000090 9f 32 a4 bc 24 55 b7 3a e7 27 14 3d 37 da 82 bd
       -0.02004367 0.0013987166 0.036170866 -0.063892774
0000a0 44 86 7e 3c 75 3e 84 3d 9e 06 0b bc 3d 06 d6 bb
       0.015534941 0.06457225 -0.008485464 -0.0065315054
0000b0 cf 6e c6 bd 2e 03 9d 3a 0f e7 b8 3c 3e fd a6 3d
       -0.09689104 0.0011979097 0.022571115 0.08153771
0000c0 29 e2 80 be f0 45 84 3e 19 d4 98 3e 6a 39 b3 bd
       -0.25172547 0.25834608 0.29849318 -0.08751185
0000d0 ed 44 ff be 13 dc 5f 3e 7d b2 24 3e 45 43 ce 3e
       -0.49857274 0.21861295 0.16083713 0.40285698
0000e0 ff 4e 58 40 03 10 17 3e 93 20 21 be b7 c7 0f 3d
       3.3798215 0.14752202 -0.15735082 0.035102572
0000f0 f0 67 f3 bd 7b a0 f4 be 71 38 e6 3b 47 80 49 c0
       -0.11885059 -0.47778687 0.0070257713 -3.1484544
000100 f3 ef 33 bd 1c 5f eb 3e 3b df c6 be 54 3b 5a be
       -0.043930005 0.45971 -0.38842186 -0.21311694
000110 6a 6a 3a bd 0d 91 27 bd c3 1b da 3d 23 1d d1 be
       -0.04551164 -0.040909816 0.106498264 -0.40842542
000120 37 5e d6 3c df a7 ef 3d 6b ad 9b bc ae a9 16 bd
       0.026167972 0.11701941 -0.01900359 -0.036782913
000130 47 a4 13 be d1 ed e3 3c d4 64 7f 3d d6 89 29 3e
       -0.14418136 0.02782336 0.062352017 0.16556486
000140 4b 0c d0 bc ab bd d3 3e 2d 0e af be 4e 15 54 be
       -0.025396487 0.41355643 -0.34190503 -0.20711252
000150 f7 ed 13 bd da 8a a3 3c 4a c6 a4 3d aa 30 b0 be
       -0.036115613 0.01996367 0.08045633 -0.34412128
000160 49 11 a0 3b 8a 42 ea 3d 25 0a d2 bc 3b 86 82 bc
       0.004884873 0.114384726 -0.025639603 -0.015933147
000170 4e cc 15 be 73 d3 51 3c eb c8 81 3d 80 15 26 3e
       -0.14628717 0.012806761 0.0633715 0.16219139
000180 bb 83 21 bd e0 ce ca 3e c9 0e ae be 53 43 5c be
       -0.03943227 0.39610958 -0.33995655 -0.21510057
000190 5d 6e 52 bd 35 0b 9a 3c e4 63 c7 3d af c4 c8 be
       -0.051374782 0.018804172 0.097358495 -0.39212558
0001a0 70 3e bd 3c 9d df 02 3e 70 09 b7 bc e4 0e dc bc
       0.023101062 0.12780614 -0.022343367 -0.02686257
0001b0 17 39 46 be 0e 9d 52 3c 06 65 7f 3d 66 f2 4e 3e
       -0.19357716 0.012854828 0.062352203 0.20209655
0001c0 a7 c9 b1 3d 7d db 2a 3e 3f 8d e9 3f 07 51 6f bf
       0.0868104 0.1668529 1.824623 -0.9348301
0001d0 ca 84 e0 3e 64 89 20 bd fb 2e 70 3f ec eb 88 3e
       0.4385131 -0.039193526 0.93821687 0.26742494
0001e0 94 ad 32 3f c9 39 04 3e 25 dd 15 40 f1 72 b3 bf
       0.6979611 0.12912668 2.3416226 -1.4019452
0001f0 48 e7 ca 3e cc e3 2f bf e9 5f 68 bf 16 9b 13 c0
       0.3962958 -0.68706965 -0.9077135 -2.3063407

encoder.linear5.bias f4 [8]
000000 85 d5 f3 bc 4a 80 a6 bc ec e4 a2 bc b0 de d9 bf
       -0.0297649 -0.020324845 -0.01988455 -1.7021084
000010 23 a2 4e bd b0 b2 11 bd af 3e 4d bd 58 38 ad bf
       -0.050447594 -0.0355708 -0.050108608 -1.353282

fitness_layer.weight f4 [1, 8]
000000 75 cb 0c 40 92 f5 06 c0 d2 15 08 c0 e5 0f ef 41
       2.199918 -2.1087384 -2.1263318 29.882761
000010 bb ea 04 c0 d6 2a 0b 40 74 f2 10 40 a3 01 05 c1
       -2.0768268 2.1744895 2.2647982 -8.3129

decoder.linear1.weight f4 [16, 8]
000000 77 95 2a bb bb f7 f5 ba 41 72 b5 3c 42 aa d7 c1
       -0.002602903 -0.0018765846 0.022149207 -26.958134
000010 00 ef 62 bc 74 00 2f 3c 6f 33 9b 3c ae 27 51 bd
       -0.013850927 0.01068126 0.018945424 -0.051063232
000020 19 da 19 3a ea 71 fc bb d7 a0 d1 3a ff 80 bc be
       0.0005868986 -0.0077040093 0.0015993369 -0.36817166
000030 97 21 2d bc 9f c7 d5 bb f3 64 af bb 23 d1 3f be
       -0.0105670905 -0.006524041 -0.0053526103 -0.18732123
000040 93 93 08 3c 1f 98 9a 3b 04 5e e4 3b d2 32 b8 3f
       0.008335966 0.0047178413 0.0069692153 1.4390509
000050 5d 23 b4 ba 8b d8 f7 3a 7e a2 a0 3c 19 39 cc be
       -0.0013743449 0.0018909139 0.019608732 -0.39887312
000060 a1 c5 88 bc 9f fb 85 bc bf 9b 87 3b 8d cc 3c 3f
       -0.0166958 -0.016355334 0.0041384394 0.7374962
000070 af be 68 bc 20 a2 93 bc 10 19 90 bb ae f1 7c 3f
       -0.014205619 -0.018021643 -0.004397519 0.98806274
000080 ed cf 31 be fa ed fe bd 47 b3 29 bd 3f 16 47 bf
       -0.17364474 -0.12447734 -0.041430738 -0.7776832
000090 96 41 31 be a9 66 7c be e2 ba 99 be cc 2c 5e bf
       -0.17310175 -0.24648537 -0.30025393 -0.86787105
0000a0 c6 67 76 bc f3 d9 8b bc 6f fd 29 3c de 69 26 bf
       -0.01503939 -0.0170717 0.010375365 -0.6500529
0000b0 9a b8 64 b8 0c 2d 0b 3c d1 ff 7f 3c ef e3 ed 3f
       -5.453136e-05 0.008494627 0.015624956 1.8585185
0000c0 cf b0 23 b8 76 dc 67 be 55 18 1d be ec f1 02 bf
       -3.9026894e-05 -0.22642693 -0.15341313 -0.51150393
0000d0 77 e6 94 be ac 38 ae be 09 30 84 3c 2a ef 07 be
       -0.2908208 -0.34027612 0.016136186 -0.13274828
0000e0 f7 d5 89 3c f8 27 bf 3b f3 cc 4c bb cb 4f fa 3e
       0.01682566 0.005833622 -0.003125009 0.48889002
0000f0 3f 0b a0 ba 42 9a e4 3b f4 9c f9 bb 0e f9 9d bf
       -0.0012210383 0.006976397 -0.007617587 -1.234163
000100 8a 3c c0 3b 06 5a 6a be 7c ee 9d bd 3a ab 29 3d
       0.005866592 -0.22885904 -0.07711503 0.04142306
000110 10 68 8e bc 48 ce 7c bd 54 95 53 be 19 82 51 3a
       -0.017383605 -0.061720163 -0.20662433 0.00079921033
000120 42 fa f4 3c ad 12 12 3c 77 5c b6 bb 67 e0 ef be
       0.029904488 0.0089155855 -0.005565222 -0.46850893
000130 01 7f 9b 3c f5 f2 38 3b 4f a0 91 3c 98 c0 e6 3e
       0.018981459 0.0028220986 0.017776636 0.45068812
000140 a8 73 8b bc 50 5d 03 3c 3d 93 12 bc a3 b8 31 c0
       -0.017022923 0.008017853 -0.008946237 -2.7768943
000150 15 35 5f bc 4e 69 f8 bc 09 47 d0 bc e0 28 a2 3f
       -0.013623496 -0.03032365 -0.025424497 1.2668724
000160 da f8 69 3b 97 8f 15 bb 46 2d 1a bc 52 1f 68 3e
       0.0035701306 -0.0022821182 -0.009410208 0.22668198
000170 2a 98 18 3c 92 4a 54 3c 48 6d f7 bb f3 0a 48 c1
       0.0093136225 0.012957232 -0.007550869 -12.502673
000180 f7 67 32 3c 63 87 91 bb 75 cd 07 3b b4 da 94 3f
       0.010889045 -0.004441188 0.0020721827 1.1629243
000190 c1 f6 49 bb 45 68 38 3b a9 e6 f8 ba 0f b0 6f 3f
       -0.0030817243 0.0028138321 -0.001898964 0.9362802
0001a0 99 1f 44 bb c4 15 d7 bb 6b 81 2e bc 62 53 48 bd
       -0.002992606 -0.006563874 -0.010650973 -0.048907645
0001b0 e7 7a 8c 3b c4 75 0c 3c 82 dc dd 3b 2c 4b ed 3f
       0.004287112 0.008572999 0.0067706713 1.8538566
0001c0 03 c7 08 bc 8f 91 c6 3c 0d dd de 3b d0 bf 10 3f
       -0.008348229 0.02423933 0.0068012537 0.5654268
0001d0 12 81 36 3d 58 3b 3d bc 2c 83 8d bc 85 81 cf bf
       0.044556685 -0.011549793 -0.017274462 -1.6211401
0001e0 17 09 c3 3d d3 c6 2d 3d 6f a5 1e 3c 8d b3 68 c0
       0.09523218 0.04242594 0.009682997 -3.635959
0001f0 2e 23 b5 3d 39 33 90 3d 9b 06 ae 3d 8a 91 ae bf
       0.088446006 0.0704102 0.08497354 -1.3638165

decoder.linear1.bias f4 [16]
000000 3e 0b a9 3e ee f4 a1 3f 55 f6 ac 3e 5d c8 dc be
       0.3301639 1.2652872 0.33781686 -0.43121615
000010 a1 d2 e8 3e 7d 6c 88 bf 27 79 1f be b2 aa 2e 3f
       0.45473197 -1.0658108 -0.1557356 0.6822921
000020 47 8d 9f be eb a5 c1 3e 97 7a fb be e5 54 02 3f
       -0.31162474 0.37821898 -0.49116966 0.5091079
000030 51 c0 ff bd a3 4d c4 bd 4c 5f 99 be 5f 12 22 3f
       -0.12487853 -0.095851205 -0.29955518 0.6330928

decoder.linear2.weight f4 [16, 16]
000000 d3 a6 32 40 8c 81 4e 3e 23 d1 c9 bd af c6 6c 3d
       2.7914321 0.20166606 -0.09854343 0.057806667
000010 16 42 76 3d b5 0d 8d be 8a 83 5a be 89 3d 29 3e
       0.06012162 -0.2754952 -0.2133924 0.1652738
000020 3e f4 aa bd c2 75 8b be bb 05 de be ad ae 82 bf
       -0.08347367 -0.2723828 -0.43363747 -1.0209557
000030 16 e4 a6 3e 82 67 27 bf 3f a0 1f bf c1 23 e4 bc
       0.3259589 -0.65392315 -0.6235389 -0.02784908
000040 b2 26 d3 3e 93 ba c6 bf 3a c4 31 bc 11 4f 69 3e
       0.4124046 -1.5525688 -0.010850007 0.22784068
000050 d4 84 c2 be 60 50 8d 3f ce e4 76 be dc f7 b9 3e
       -0.37991965 1.1040154 -0.2411072 0.36321914
000060 5a 6d 4a be 36 23 29 bf 4c 29 82 3e 91 50 74 3f
       -0.19768277 -0.6606935 0.25422132 0.95435435
000070 1e 02 e9 3d db 11 7c bd df bc 88 3e 88 80 72 3e
       0.11377357 -0.061540466 0.26706597 0.23681843
000080 c7 74 47 bf 60 5d 73 be 8b b9 79 3f 00 a2 4b 3e
       -0.77912563 -0.23766088 0.9754874 0.19886017
000090 12 16 cf bd 58 38 72 be cb d2 9b 3c 2d 9b ce 3e
       -0.101116315 -0.23654306 0.019021412 0.40352765
0000a0 f8 98 38 be 11 53 48 bd 5b 37 f4 3e 55 73 5f 3e
       -0.18027103 -0.048907343 0.47698483 0.2182134
0000b0 e4 da f6 3e d2 18 8c be 56 73 d7 3e 8a 06 8f be
       0.48213875 -0.27362686 0.42080182 -0.27934676
0000c0 a0 66 84 c0 57 15 ef 3e 1d a4 00 3f 2a 4c 36 bf
       -4.1375275 0.46695969 0.50250417 -0.7120997
0000d0 39 e4 5a bd 67 35 82 3f 7c 40 6f bd e2 1e 67 3f
       -0.053440306 1.0172547 -0.058411106 0.902815
0000e0 cf 13 1c be 11 ba c9 bd 5a e5 03 3f 7e 54 b8 bf
       -0.15241931 -0.098499425 0.5152184 -1.4400785
0000f0 bc f9 2b bf 9b e3 da bf 6e 12 c5 3e 47 0a 35 be
       -0.6717794 -1.710071 0.38490623 -0.17679702
000100 a2 5e 81 3d 1f 72 91 3d 8e 82 2b be f7 bd 38 3d
       0.06316878 0.07101845 -0.16749021 0.04510304
000110 92 b1 18 be 88 73 46 be f8 e1 e9 bd 23 55 83 be
       -0.14911488 -0.19380009 -0.11420053 -0.25650892
000120 7a 77 45 3e 86 07 9f be ab a5 2f 3d 95 cc 01 be
       0.19283858 -0.31060427 0.042882603 -0.12675698
000130 58 03 93 3c b2 4c 0f 3e aa 20 27 be b0 36 55 be
       0.01794593 0.139941 -0.16321054 -0.20821643
000140 04 23 3b bf 58 8a 16 bc ce 65 6e bd e5 2e c0 be
       -0.73100305 -0.009188257 -0.058202557 -0.37535778
000150 9e 5c 92 3d bc 39 a7 3f 74 61 2a 3e aa 82 50 3e
       0.071465716 1.3064494 0.16638738 0.20362344
000160 f3 ed b6 b8 61 f0 83 be 9d 74 c9 3f 7c e7 b2 3f
       -8.722758e-05 -0.25769332 1.5738713 1.3976893
000170 17 31 79 bf ef a0 29 bf 53 ef 98 3e 87 f9 41 bd
       -0.9734053 -0.6626119 0.2987009 -0.04735711
000180 b6 08 3f 40 0a c0 4a be ab c4 bf be 1a 9b f0 3e
       2.9849067 -0.1979982 -0.37454733 0.46993333
000190 af 21 44 be 92 44 3e 3f ae 1f 66 bc 78 8c 4a bf
       -0.19153474 0.7432338 -0.014045639 -0.7912059
0001a0 df 5a 8a 3d 61 6c 67 3e c5 01 87 3e 79 d8 6f bf
       0.067556135 0.22599937 0.26368538 -0.93689686
0001b0 cb 2b eb 3e b6 30 20 3f 61 b1 70 bb c7 ee 8c 3f
       0.4593185 0.62574327 -0.003672682 1.1010369
0001c0 35 7e 8c c0 57 1d ad be 6e 20 65 be a4 15 b0 3e
       -4.390406 -0.33811447 -0.22375652 0.3439151
0001d0 4c 26 a1 3d 16 0b a3 bd d5 42 2d 3e 18 28 7b bf
       0.07868633 -0.07961099 0.16920026 -0.98108053
0001e0 60 a4 81 bd 53 60 05 3e ab 08 e2 3b 2f b7 0a 40
       -0.0633018 0.13025026 0.006898006 2.1674306
0001f0 43 3a f5 3e d6 9e 30 3f fc 9c 3d 3f e5 c0 14 3f
       0.47896013 0.68992364 0.74067664 0.58106834
000200 bf b2 2a bd 3f c5 47 be d8 99 61 be 69 88 3d bd
       -0.04167437 -0.19508837 -0.22031343 -0.04627267
000210 17 61 80 bf 93 a7 82 bd 7c c7 80 3e 81 d0 2b bc
       -1.002963 -0.063796185 0.25152194 -0.010486723
000220 d2 4a 7a 3e 90 93 b3 bd 30 5f 91 bd a3 cd 9f 3e
       0.24442604 -0.0876838 -0.07098234 0.31211576
000230 1d ca 8f be e2 d5 af 3c 57 a6 c1 be d2 e0 0f 3f
       -0.28083888 0.021464292 -0.3782222 0.56202424
000240 d3 fc a3 3e 9a f0 cd 3e 6c 32 d4 bd 8e a1 a7 bd
       0.32028827 0.40222627 -0.1036118 -0.08185111
000250 f5 7e 59 be 20 21 01 be d3 e2 6b 3d 59 61 cd bd
       -0.21239837 -0.12610292 0.057589363 -0.10028333
000260 84 60 c6 bd f9 c3 90 3e 1d c7 5a 3f 00 8e 9a bf
       -0.09686378 0.28274515 0.8546007 -1.2074585
000270 b2 c2 44 be bd 50 12 3e 57 8d fa 3d 6f db 8b bf
       -0.19214895 0.14288612 0.1223399 -1.0926341
000280 aa e5 fb bf b6 46 2a be 61 89 bf 3e 17 7b cc 3e
       -1.9679463 -0.16628537 0.374095 0.3993766
000290 f5 f9 15 3d 54 8a e7 be e4 97 8a 3d 95 ac 0e be
       0.03661533 -0.45222723 0.06767252 -0.13933022
0002a0 f9 b9 34 3e 5e ff 05 bc 7a 55 fe bd d8 72 ad 3e
       0.17649068 -0.00817856 -0.12418647 0.3387668
0002b0 65 6b fe 3e a2 f5 82 3e 10 22 b3 3e c0 11 95 bd
       0.4969131 0.25578028 0.34986925 -0.07278776
0002c0 a6 b9 a3 3f 03 d8 b7 3d 68 20 a3 bb 40 a7 23 be
       1.279103 0.08976748 -0.0049782284 -0.1598177
0002d0 56 27 ab bc 4b 19 41 be 5c d3 6a 3d 19 39 5f 3c
       -0.02089278 -0.18857305 0.057330474 0.013624453
0002e0 ea 55 2c 3e 6f e0 64 3d 9d 03 c1 be 0c 07 86 bf
       0.16829649 0.0558781 -0.3769807 -1.04709
0002f0 fa da 9b 3e 24 7f ad 3e c6 03 0c bf 3a bd b8 3c
       0.30440503 0.33886063 -0.5469326 0.022551168
000300 00 1e 42 bf 67 40 da bf 18 b8 f8 be a5 b2 2c 3f
       -0.75827026 -1.7050904 -0.48577952 0.6746009
000310 58 11 b1 be 25 b5 9b 3f d0 c6 20 be 3d e9 fd bf
       -0.34583545 1.2164656 -0.15700841 -1.9836804
000320 2f da 16 3e f2 64 8a be e9 e8 a2 be b7 f3 f5 3e
       0.14731668 -0.2703014 -0.3181832 0.48037502
000330 6f 4f 1f 3f eb c4 81 3e d4 d7 58 bd 01 d9 39 3d
       0.6223058 0.2534555 -0.052940205 0.045372967
000340 18 f6 57 3d 88 e3 0b be 74 0d 31 be 00 d1 a8 3a
       0.052724928 -0.13661015 -0.17290288 0.001287967
000350 e2 a9 33 be 78 c7 9a bd d8 25 53 be 40 bc 34 3d
       -0.17545274 -0.07557577 -0.20619905 0.04412484
000360 3c b1 f3 bd fa 22 35 be 2e 69 13 be 76 71 2f be
       -0.11899039 -0.17689124 -0.14395592 -0.17133126
000370 34 4a 8d bd 28 ed 49 3d 54 e7 ab 3d 8c 6e 67 be
       -0.06898919 0.049298435 0.08393732 -0.22600764
000380 12 84 60 40 0f 26 19 3d 21 52 4e bf 5e 8c c5 be
       3.508061 0.03738981 -0.8059407 -0.38583654
000390 74 ca 98 bd e1 91 a9 3e 56 99 03 be 95 43 45 bf
       -0.0746049 0.3311911 -0.12851462 -0.77056247
0003a0 34 27 29 be f7 2b e0 bd 3b d1 ed 3e a5 36 9b bf
       -0.16518861 -0.10945886 0.46448693 -1.2126051
0003b0 08 d0 c4 be 2c fe 09 bd 6d 44 f8 be 65 51 41 bd
       -0.38439965 -0.033689663 -0.48489705 -0.047196764
0003c0 fb 6c 22 bf 0f 19 b8 bd 70 ac ad 3e c8 ae 10 3e
       -0.6344754 -0.089891545 0.33920622 0.14129174
0003d0 d3 35 a3 be f9 ce 0e bd bd f4 4d 3e 6d b4 d9 3e
       -0.31877002 -0.034865353 0.20112891 0.42520466
0003e0 e5 0e 58 be 61 59 56 bf 29 09 37 be c2 2a 05 bf
       -0.21099432 -0.8373013 -0.17874588 -0.5201837
0003f0 6d 07 46 bc d6 b2 db be e6 01 a1 bc 1a ab 78 3e
       -0.012086731 -0.42909878 -0.019654226 0.2428402

decoder.linear2.bias f4 [16]
000000 33 5e 52 3e 8d be 99 bf 65 62 6b 3c c5 85 05 3f
       0.20543747 -1.2011276 0.014366721 0.5215724
000010 15 5b 86 be 8a 86 8f 3e d8 6e 82 be d5 bd c0 be
       -0.26241365 0.28032333 -0.25475192 -0.3764483
000020 9d c7 00 be 41 99 00 3f 14 11 a5 3c 66 de 41 3e
       -0.12576146 0.50233847 0.020149745 0.18932495
000030 3c 53 a6 bf 36 e9 1e be 88 08 a2 be 43 7b 94 be
       -1.2994151 -0.1551865 -0.31647134 -0.2900029

decoder.linear3.weight f4 [32, 16]
000000 40 62 de 3e a9 25 a4 be 72 c1 bc bf 76 a3 cd 3d
       0.43434334 -0.32059982 -1.4746535 0.10040943
000010 55 c8 81 bc 64 40 8b 3e 56 01 47 3d 72 ca 1e be
       -0.015842596 0.27197564 0.04858526 -0.15506914
000020 4b 73 5a bf 2a d9 16 3e 02 72 26 bf 7e ba 61 3e
       -0.85332173 0.14731279 -0.6501771 0.22043797
000030 d6 ba 54 bf c4 ea df 3d 31 95 15 bf b6 97 7b be
       -0.8309759 0.1093345 -0.58430773 -0.24569592
000040 5d ae ac 3e 8e 84 a0 be 4c 9b ff bf de 35 3b bf
       0.3372678 -0.3135113 -1.9969268 -0.7312907
000050 cd 62 97 bc db fa 8c 3e 19 f6 1f 3e 32 64 20 bd
       -0.01847973 0.27535138 0.15621223 -0.039158054
000060 de 5c e9 3d eb c9 a1 be f3 4f 2e bf f1 a6 32 be
       0.11394666 -0.31599364 -0.6809074 -0.17446496
000070 63 63 bc be 50 4d a0 bc d6 5c 5b be 14 6a cc be
       -0.36794576 -0.019568115 -0.21422133 -0.3992468
000080 f4 84 7c be 2c f4 e6 3d 16 f9 29 bf 59 da 38 bc
       -0.24660093 0.11277041 -0.663957 -0.011282527
000090 ed 3a f2 bd 35 8c 2f 3f 99 7c 3b 3e 74 9e 9b be
       -0.118276455 0.68573314 0.18309249 -0.30394328
0000a0 12 1f 17 bf f4 2b 1a 3f 3e 70 e1 be 93 3e 85 bd
       -0.59031785 0.6022332 -0.44030946 -0.06506076
0000b0 30 1f aa bc be 36 1a 3e dd 3d 3e 3e 6e 94 4e be
       -0.020766824 0.15059945 0.18578286 -0.20173809
0000c0 5e 70 eb be d6 60 28 be fd 6c 7f 3e e2 44 dc be
       -0.45984167 -0.1644319 0.2494392 -0.43021303
0000d0 32 8f b5 bd 97 f2 91 3e 65 90 45 be 12 b4 8a be
       -0.08865203 0.28505394 -0.19293363 -0.27090508
0000e0 73 5d 35 3e ff 9a 90 3e 10 4a 2c 3e fe 60 79 bd
       0.1771143 0.28243253 0.16825128 -0.060883515
0000f0 0d 89 b7 3e 68 34 39 3d 3c 62 80 bf 09 71 9d be
       0.3584675 0.045215994 -1.0029979 -0.307503
000100 64 b6 3d be 3f d9 39 be 20 37 ce 3e e6 24 2c 3e
       -0.18526608 -0.18149279 0.40276432 0.1681095
000110 eb 84 58 bd 3c d8 65 be 43 fb 49 be d2 cb 36 3e
       -0.052861135 -0.22445768 -0.19724755 0.17851189
000120 c3 e4 ff bd 54 f2 97 3e a1 1e 95 3e 4a 59 e2 3c
       -0.12494805 0.2967707 0.2912493 0.027630467
000130 d2 e6 c0 3b 5e 60 3a be 0e a6 67 3e f8 fb f3 3e
       0.005886891 -0.18200824 0.22621939 0.47653174
000140 80 ed b2 3d a4 64 54 ba 4a c6 a3 bd ff 4a 88 be
       0.08736706 -0.0008102155 -0.07996805 -0.26619717
000150 40 96 d3 3c ac 38 8a be 94 24 56 be 57 7a 65 bd
       0.02582848 -0.26996362 -0.20912391 -0.056024875
000160 10 a8 8f 3c 59 2c 5d be f6 40 8f 3d 3f e1 60 3d
       0.017536193 -0.21598949 0.06994812 0.05490231
000170 a1 60 c8 3c b2 49 44 3e d8 98 20 3e 82 47 b9 bc
       0.024460139 0.19168738 0.15683305 -0.022617105
000180 79 e7 e6 3c 7b 02 cf 3d b3 4b 73 bd 3f e8 18 be
       0.028186547 0.10107895 -0.059398364 -0.14932345
000190 84 97 d5 3d 20 43 8a be 1c 2e 89 be 40 91 0c 3d
       0.1042929 -0.27004337 -0.2679299 0.03431821
0001a0 54 67 68 be 84 22 3c 3e 4f 84 af bd 06 3d 30 be
       -0.22695667 0.18372542 -0.08570158 -0.17210779
0001b0 91 65 22 3e 98 2f 28 3e 07 73 d5 3d 8b c5 fa bd
       0.15859057 0.16424406 0.1042233 -0.122447096
0001c0 6c 29 b9 3e a0 dc 80 3e f6 f8 0e bf 9a d1 98 bd
       0.36164415 0.25168324 -0.55848634 -0.07461853
0001d0 19 e1 f2 3c 5a f4 c1 3d 8e 5f 06 3f a7 13 3d 3f
       0.02964835 0.094704345 0.52489555 0.7385811
0001e0 51 bf 32 3e 4f 15 58 3b db 2b 01 3f fc fc dc 3e
       0.17455794 0.0032971685 0.50457543 0.43161762
0001f0 bb 6b 0e c0 da 98 34 be 6f 8c 7a bf 47 84 f4 3e
       -2.2253253 -0.17636433 -0.97870535 0.4775717
000200 4b 18 f5 3e 19 3e 5a be 33 fb 82 bf fb 66 fd be
       0.47870097 -0.21312751 -1.023291 -0.4949263
000210 8d 5a 9c bd 36 f1 fc 3e a1 a7 95 be cf 68 c7 be
       -0.07634459 0.4940278 -0.29229453 -0.3894715
000220 3e bb 45 bd 78 b0 c0 3b 0f e8 64 3e f3 ce 48 3c
       -0.04827427 0.0058804117 0.22354148 0.012256372
000230 95 c0 5d 3e 1c 3e b1 bd eb f6 83 bf 8e 01 8a be
       0.21655495 -0.086544245 -1.0309728 -0.2695431
000240 1c 62 08 bc ab 44 4c be 95 72 94 be 0d 53 4e 3f
       -0.008324172 -0.1994807 -0.2899367 0.80595475
000250 96 2a 14 be af 38 93 bf a5 cf 6b 3e 5a 76 ba 3d
       -0.1446937 -1.1501673 0.23028429 0.09104605
000260 f1 a3 43 be b0 af ce 3d 24 12 92 be a7 b2 54 bd
       -0.19105507 0.100921035 -0.28529465 -0.05192819
000270 59 21 90 bf d0 62 be 3d a1 c8 c9 3e 42 33 f6 3e
       -1.1260177 0.09296191 0.3941088 0.48085982
000280 07 9e 9a 3e dc d2 03 bd 71 78 65 be 3a 15 55 3f
       0.3019869 -0.032183513 -0.22409226 0.83235514
000290 d3 c7 cc bd 6a 98 9e bf 9e 41 31 3f c2 fa ee be
       -0.09999051 -1.2390263 0.6924075 -0.46675688
0002a0 d2 f5 5b be 78 16 e9 be 55 ce 48 bf b9 f5 8a bf
       -0.21480492 -0.45524955 -0.7843984 -1.0856239
0002b0 8a 53 49 be 08 6c 7d bd 66 f6 a7 3e 16 aa 7e 3f
       -0.19660774 -0.061870605 0.32805175 0.9947828
0002c0 6e 08 6a be 0d 5f 33 3e fc 57 9b bd 30 73 c8 3c
       -0.22854778 0.17516728 -0.07585141 0.024468988
0002d0 ac 0d a8 bd 3b 9a 17 be f8 18 d6 bd 55 a0 ae 3c
       -0.08205733 -0.14804928 -0.10453981 0.021316687
0002e0 20 47 ca bd 0e 85 f3 bd e1 73 80 be bb d4 35 3e
       -0.09876847 -0.118906125 -0.2508841 0.17756931
0002f0 03 b8 78 bd f0 c7 76 be c9 46 66 3d 36 78 3c be
       -0.060722362 -0.24099708 0.05621985 -0.18405232
000300 cd cb 67 3e 05 53 99 bf a3 27 80 be 05 01 7f 3d
       0.22636338 -1.197846 -0.2503024 0.06225683
000310 7c 13 35 3e 60 c7 50 bd 3e 12 4f 3e 46 f3 2d 3f
       0.17683214 -0.05097139 0.20221803 0.6794933
000320 95 38 ce bd da 26 fa be bf ef 91 bf 09 6e 95 be
       -0.10069386 -0.48857766 -1.140129 -0.29185513
000330 bb 42 59 bf 18 68 16 3d b1 b9 be 3e f8 77 bf 3e
       -0.8486745 0.036720365 0.37251046 0.37396216
000340 b2 2c 44 3e ea 61 e5 be 10 da 81 3e dc b3 17 be
       0.19157675 -0.44801265 0.2536168 -0.14814705
000350 ed 96 14 bc f5 00 19 3d c7 76 9b c0 0a fe 82 be
       -0.009069187 0.03735443 -4.858249 -0.2558444
000360 57 b2 6b 3e 23 39 8c 3e c7 fb 90 bd 31 cb c4 3e
       0.2301725 0.27387342 -0.07079273 0.38436273
000370 d9 c0 37 bf b4 6e 42 3e 52 41 d3 bd d0 ed 36 be
       -0.7177864 0.18987542 -0.10315193 -0.17864156
000380 14 9e 1d c0 a6 30 e8 bd b3 57 93 3e 77 88 39 be
       -2.4627733 -0.11337404 0.28777847 -0.18118463
000390 d9 49 f9 bd cc da 2b 3e 9f 21 09 be 91 f0 69 bd
       -0.121722884 0.16782683 -0.13391732 -0.057114188
0003a0 ef 15 cb bd 84 20 87 bd 1c 26 67 be ef e9 f6 be
       -0.09916293 -0.06597999 -0.22573131 -0.48225352
0003b0 54 f7 53 ba e6 e9 05 3e 23 e5 7a 3d 37 2d 88 be
       -0.0008085866 0.13077506 0.061253678 -0.26596996
0003c0 1e ad ea 3d 3a e5 58 3e f7 20 6a bd e4 d8 20 3e
       0.11458801 0.21181193 -0.057160344 0.15707737
0003d0 90 ed 64 bd 51 d0 5b be d8 a4 83 bd 0b 6f 05 be
       -0.05589062 -0.21466185 -0.06427926 -0.13030641
0003e0 82 9d 25 be c9 ff b9 bd ff 2f 91 be 83 2a 42 be
       -0.16173366 -0.0908199 -0.2835693 -0.1896153
0003f0 68 9d 37 bd 66 6b 03 be bc 0f 0b be 1b 5f 83 3c
       -0.04482785 -0.12833938 -0.13580221 0.01603656

decoder.linear3.bias f4 [32]
000000 bd b8 f1 3e b8 2f d0 3d ab 2d 87 3f 32 a1 83 be
       0.47211257 0.10165352 1.0560812 -0.2570892
000010 3e c8 10 bf 4c 07 da bd 68 61 06 be 13 3a 61 be
       -0.56555545 -0.10645923 -0.13123095 -0.2199481
000020 b9 4e 9a 3e bf 50 ab 3e c6 11 bf 3e fc 5d 7d be
       0.30138186 0.33460042 0.37318248 -0.24742883
000030 15 8b a7 3e 64 e5 6a be ed 24 be ba ad 64 85 be
       0.327233 -0.22939068 -0.0014506854 -0.26053372
000040 05 23 eb bc bb cd be be 9e bc d6 3e 5f 4e 31 3f
       -0.028703222 -0.37266335 0.41940778 0.6926021
000050 42 98 0e bf 8e e9 54 3f c1 db 70 3f b9 83 a4 bf
       -0.55701077 0.83168876 0.9408532 -1.2852699
000060 cb c1 a0 3f a9 4d 09 bd e4 42 a8 3d 95 68 bd 3d
       1.2559141 -0.033521328 0.082158834 0.09248463
000070 db 66 75 3f f4 27 e3 bd f3 8e 9d bf 29 99 c2 bf
       0.9586007 -0.11091605 -1.230925 -1.5202991
